
Model: "model"
__________________________________________________________________________________________________
Layer (type)                    Output Shape         Param #     Connected to                     
==================================================================================================
input_2 (InputLayer)            [(None, 32, 32, 3)]  0                                            
__________________________________________________________________________________________________
conv2d_2 (Conv2D)               (None, 30, 30, 32)   896         input_2[0][0]                    
__________________________________________________________________________________________________
conv2d_3 (Conv2D)               (None, 28, 28, 64)   18496       conv2d_2[0][0]                   
__________________________________________________________________________________________________
fractional_pooling2d (Fractiona (None, 9, 9, 64)     0           conv2d_3[0][0]                   
__________________________________________________________________________________________________
conv2d_4 (Conv2D)               (None, 9, 9, 64)     36928       fractional_pooling2d[0][0]       
__________________________________________________________________________________________________
batch_normalization (BatchNorma (None, 9, 9, 64)     256         conv2d_4[0][0]                   
__________________________________________________________________________________________________
conv2d_5 (Conv2D)               (None, 9, 9, 64)     36928       batch_normalization[0][0]        
__________________________________________________________________________________________________
batch_normalization_1 (BatchNor (None, 9, 9, 64)     256         conv2d_5[0][0]                   
__________________________________________________________________________________________________
add (Add)                       (None, 9, 9, 64)     0           batch_normalization_1[0][0]      
                                                                 fractional_pooling2d[0][0]       
__________________________________________________________________________________________________
activation (Activation)         (None, 9, 9, 64)     0           add[0][0]                        
__________________________________________________________________________________________________
conv2d_6 (Conv2D)               (None, 9, 9, 64)     36928       activation[0][0]                 
__________________________________________________________________________________________________
batch_normalization_2 (BatchNor (None, 9, 9, 64)     256         conv2d_6[0][0]                   
__________________________________________________________________________________________________
conv2d_7 (Conv2D)               (None, 9, 9, 64)     36928       batch_normalization_2[0][0]      
__________________________________________________________________________________________________
batch_normalization_3 (BatchNor (None, 9, 9, 64)     256         conv2d_7[0][0]                   
__________________________________________________________________________________________________
add_1 (Add)                     (None, 9, 9, 64)     0           batch_normalization_3[0][0]      
                                                                 activation[0][0]                 
__________________________________________________________________________________________________
activation_1 (Activation)       (None, 9, 9, 64)     0           add_1[0][0]                      
__________________________________________________________________________________________________
conv2d_8 (Conv2D)               (None, 9, 9, 64)     36928       activation_1[0][0]               
__________________________________________________________________________________________________
batch_normalization_4 (BatchNor (None, 9, 9, 64)     256         conv2d_8[0][0]                   
__________________________________________________________________________________________________
conv2d_9 (Conv2D)               (None, 9, 9, 64)     36928       batch_normalization_4[0][0]      
__________________________________________________________________________________________________
batch_normalization_5 (BatchNor (None, 9, 9, 64)     256         conv2d_9[0][0]                   
__________________________________________________________________________________________________
add_2 (Add)                     (None, 9, 9, 64)     0           batch_normalization_5[0][0]      
                                                                 activation_1[0][0]               
__________________________________________________________________________________________________
activation_2 (Activation)       (None, 9, 9, 64)     0           add_2[0][0]                      
__________________________________________________________________________________________________
conv2d_10 (Conv2D)              (None, 9, 9, 64)     36928       activation_2[0][0]               
__________________________________________________________________________________________________
batch_normalization_6 (BatchNor (None, 9, 9, 64)     256         conv2d_10[0][0]                  
__________________________________________________________________________________________________
conv2d_11 (Conv2D)              (None, 9, 9, 64)     36928       batch_normalization_6[0][0]      
__________________________________________________________________________________________________
batch_normalization_7 (BatchNor (None, 9, 9, 64)     256         conv2d_11[0][0]                  
__________________________________________________________________________________________________
add_3 (Add)                     (None, 9, 9, 64)     0           batch_normalization_7[0][0]      
                                                                 activation_2[0][0]               
__________________________________________________________________________________________________
activation_3 (Activation)       (None, 9, 9, 64)     0           add_3[0][0]                      
__________________________________________________________________________________________________
conv2d_12 (Conv2D)              (None, 9, 9, 64)     36928       activation_3[0][0]               
__________________________________________________________________________________________________
batch_normalization_8 (BatchNor (None, 9, 9, 64)     256         conv2d_12[0][0]                  
__________________________________________________________________________________________________
conv2d_13 (Conv2D)              (None, 9, 9, 64)     36928       batch_normalization_8[0][0]      
__________________________________________________________________________________________________
batch_normalization_9 (BatchNor (None, 9, 9, 64)     256         conv2d_13[0][0]                  
__________________________________________________________________________________________________
add_4 (Add)                     (None, 9, 9, 64)     0           batch_normalization_9[0][0]      
                                                                 activation_3[0][0]               
__________________________________________________________________________________________________
activation_4 (Activation)       (None, 9, 9, 64)     0           add_4[0][0]                      
__________________________________________________________________________________________________
conv2d_14 (Conv2D)              (None, 9, 9, 64)     36928       activation_4[0][0]               
__________________________________________________________________________________________________
batch_normalization_10 (BatchNo (None, 9, 9, 64)     256         conv2d_14[0][0]                  
__________________________________________________________________________________________________
conv2d_15 (Conv2D)              (None, 9, 9, 64)     36928       batch_normalization_10[0][0]     
__________________________________________________________________________________________________
batch_normalization_11 (BatchNo (None, 9, 9, 64)     256         conv2d_15[0][0]                  
__________________________________________________________________________________________________
add_5 (Add)                     (None, 9, 9, 64)     0           batch_normalization_11[0][0]     
                                                                 activation_4[0][0]               
__________________________________________________________________________________________________
activation_5 (Activation)       (None, 9, 9, 64)     0           add_5[0][0]                      
__________________________________________________________________________________________________
conv2d_16 (Conv2D)              (None, 9, 9, 64)     36928       activation_5[0][0]               
__________________________________________________________________________________________________
batch_normalization_12 (BatchNo (None, 9, 9, 64)     256         conv2d_16[0][0]                  
__________________________________________________________________________________________________
conv2d_17 (Conv2D)              (None, 9, 9, 64)     36928       batch_normalization_12[0][0]     
__________________________________________________________________________________________________
batch_normalization_13 (BatchNo (None, 9, 9, 64)     256         conv2d_17[0][0]                  
__________________________________________________________________________________________________
add_6 (Add)                     (None, 9, 9, 64)     0           batch_normalization_13[0][0]     
                                                                 activation_5[0][0]               
__________________________________________________________________________________________________
activation_6 (Activation)       (None, 9, 9, 64)     0           add_6[0][0]                      
__________________________________________________________________________________________________
conv2d_18 (Conv2D)              (None, 9, 9, 64)     36928       activation_6[0][0]               
__________________________________________________________________________________________________
batch_normalization_14 (BatchNo (None, 9, 9, 64)     256         conv2d_18[0][0]                  
__________________________________________________________________________________________________
conv2d_19 (Conv2D)              (None, 9, 9, 64)     36928       batch_normalization_14[0][0]     
__________________________________________________________________________________________________
batch_normalization_15 (BatchNo (None, 9, 9, 64)     256         conv2d_19[0][0]                  
__________________________________________________________________________________________________
add_7 (Add)                     (None, 9, 9, 64)     0           batch_normalization_15[0][0]     
                                                                 activation_6[0][0]               
__________________________________________________________________________________________________
activation_7 (Activation)       (None, 9, 9, 64)     0           add_7[0][0]                      
__________________________________________________________________________________________________
conv2d_20 (Conv2D)              (None, 9, 9, 64)     36928       activation_7[0][0]               
__________________________________________________________________________________________________
batch_normalization_16 (BatchNo (None, 9, 9, 64)     256         conv2d_20[0][0]                  
__________________________________________________________________________________________________
conv2d_21 (Conv2D)              (None, 9, 9, 64)     36928       batch_normalization_16[0][0]     
__________________________________________________________________________________________________
batch_normalization_17 (BatchNo (None, 9, 9, 64)     256         conv2d_21[0][0]                  
__________________________________________________________________________________________________
add_8 (Add)                     (None, 9, 9, 64)     0           batch_normalization_17[0][0]     
                                                                 activation_7[0][0]               
__________________________________________________________________________________________________
activation_8 (Activation)       (None, 9, 9, 64)     0           add_8[0][0]                      
__________________________________________________________________________________________________
conv2d_22 (Conv2D)              (None, 9, 9, 64)     36928       activation_8[0][0]               
__________________________________________________________________________________________________
batch_normalization_18 (BatchNo (None, 9, 9, 64)     256         conv2d_22[0][0]                  
__________________________________________________________________________________________________
conv2d_23 (Conv2D)              (None, 9, 9, 64)     36928       batch_normalization_18[0][0]     
__________________________________________________________________________________________________
batch_normalization_19 (BatchNo (None, 9, 9, 64)     256         conv2d_23[0][0]                  
__________________________________________________________________________________________________
add_9 (Add)                     (None, 9, 9, 64)     0           batch_normalization_19[0][0]     
                                                                 activation_8[0][0]               
__________________________________________________________________________________________________
activation_9 (Activation)       (None, 9, 9, 64)     0           add_9[0][0]                      
__________________________________________________________________________________________________
conv2d_24 (Conv2D)              (None, 7, 7, 64)     36928       activation_9[0][0]               
__________________________________________________________________________________________________
fractional_pooling2d_1 (Fractio (None, 2, 2, 64)     0           conv2d_24[0][0]                  
__________________________________________________________________________________________________
flatten (Flatten)               (None, 256)          0           fractional_pooling2d_1[0][0]     
__________________________________________________________________________________________________
dense (Dense)                   (None, 256)          65792       flatten[0][0]                    
__________________________________________________________________________________________________
dense_1 (Dense)                 (None, 10)           2570        dense[0][0]                      
==================================================================================================
Total params: 868,362
Trainable params: 865,802
Non-trainable params: 2,560
__________________________________________________________________________________________________
None


Test Details

Train for 100 steps, validate for 3 steps
Epoch 1/50
 99/100 [============================>.] - ETA: 0s - loss: 2.1815 - acc: 0.2424
…
