Model Summary


Layer (type)                 Output Shape              Param #   
=================================================================
conv2d (Conv2D)              (64, 32, 32, 64)          1792      
_________________________________________________________________
leaky_re_lu (LeakyReLU)      (64, 32, 32, 64)          0         
_________________________________________________________________
conv2d_1 (Conv2D)            (64, 32, 32, 64)          36928     
_________________________________________________________________
leaky_re_lu_1 (LeakyReLU)    (64, 32, 32, 64)          0         
_________________________________________________________________
fractional_pooling2d (Fracti (64, 20, 20, 64)          0         
_________________________________________________________________
conv2d_2 (Conv2D)            (64, 20, 20, 128)         73856     
_________________________________________________________________
leaky_re_lu_2 (LeakyReLU)    (64, 20, 20, 128)         0         
_________________________________________________________________
conv2d_3 (Conv2D)            (64, 20, 20, 128)         147584    
_________________________________________________________________
leaky_re_lu_3 (LeakyReLU)    (64, 20, 20, 128)         0         
_________________________________________________________________
fractional_pooling2d_1 (Frac (64, 16, 16, 128)         0         
_________________________________________________________________
conv2d_4 (Conv2D)            (64, 16, 16, 256)         295168    
_________________________________________________________________
leaky_re_lu_4 (LeakyReLU)    (64, 16, 16, 256)         0         
_________________________________________________________________
conv2d_5 (Conv2D)            (64, 16, 16, 256)         590080    
_________________________________________________________________
leaky_re_lu_5 (LeakyReLU)    (64, 16, 16, 256)         0         
_________________________________________________________________
conv2d_6 (Conv2D)            (64, 16, 16, 256)         590080    
_________________________________________________________________
leaky_re_lu_6 (LeakyReLU)    (64, 16, 16, 256)         0         
_________________________________________________________________
fractional_pooling2d_2 (Frac (64, 10, 10, 256)         0         
_________________________________________________________________
conv2d_7 (Conv2D)            (64, 10, 10, 256)         590080    
_________________________________________________________________
leaky_re_lu_7 (LeakyReLU)    (64, 10, 10, 256)         0         
_________________________________________________________________
conv2d_8 (Conv2D)            (64, 10, 10, 256)         590080    
_________________________________________________________________
leaky_re_lu_8 (LeakyReLU)    (64, 10, 10, 256)         0         
_________________________________________________________________
conv2d_9 (Conv2D)            (64, 10, 10, 256)         590080    
_________________________________________________________________
leaky_re_lu_9 (LeakyReLU)    (64, 10, 10, 256)         0         
_________________________________________________________________
fractional_pooling2d_3 (Frac (64, 8, 8, 256)           0         
_________________________________________________________________
conv2d_10 (Conv2D)           (64, 8, 8, 512)           1180160   
_________________________________________________________________
leaky_re_lu_10 (LeakyReLU)   (64, 8, 8, 512)           0         
_________________________________________________________________
conv2d_11 (Conv2D)           (64, 8, 8, 512)           2359808   
_________________________________________________________________
leaky_re_lu_11 (LeakyReLU)   (64, 8, 8, 512)           0         
_________________________________________________________________
conv2d_12 (Conv2D)           (64, 8, 8, 512)           2359808   
_________________________________________________________________
leaky_re_lu_12 (LeakyReLU)   (64, 8, 8, 512)           0         
_________________________________________________________________
fractional_pooling2d_4 (Frac (64, 5, 5, 512)           0         
_________________________________________________________________
conv2d_13 (Conv2D)           (64, 5, 5, 512)           2359808   
_________________________________________________________________
leaky_re_lu_13 (LeakyReLU)   (64, 5, 5, 512)           0         
_________________________________________________________________
conv2d_14 (Conv2D)           (64, 5, 5, 512)           2359808   
_________________________________________________________________
leaky_re_lu_14 (LeakyReLU)   (64, 5, 5, 512)           0         
_________________________________________________________________
conv2d_15 (Conv2D)           (64, 5, 5, 512)           2359808   
_________________________________________________________________
leaky_re_lu_15 (LeakyReLU)   (64, 5, 5, 512)           0         
_________________________________________________________________
fractional_pooling2d_5 (Frac (64, 4, 4, 512)           0         
_________________________________________________________________
flatten (Flatten)            (64, 8192)                0         
_________________________________________________________________
dense (Dense)                (64, 4096)                33558528  
_________________________________________________________________
leaky_re_lu_16 (LeakyReLU)   (64, 4096)                0         
_________________________________________________________________
dense_1 (Dense)              (64, 4096)                16781312  
_________________________________________________________________
leaky_re_lu_17 (LeakyReLU)   (64, 4096)                0         
_________________________________________________________________
dense_2 (Dense)              (64, 10)                  40970     
=================================================================
Total params: 66,865,738
Trainable params: 66,865,738
Non-trainable params: 0


Training Details

Train on 49984 samples, validate on 9984 samples
Epoch 1/10
49920/49984 [============================>.] - ETA: 0s - loss: 2.2428 - accuracy: 0.1393
Epoch 00001: val_loss improved from inf to 1.97072, saving model to Model.hdf5
49984/49984 [==============================] - 282s 6ms/sample - loss: 2.2424 - accuracy: 0.1395 - val_loss: 1.9707 - val_accuracy: 0.2623
…
