Model Summary

Layer (type)                 Output Shape              Param #   
=================================================================
conv2d_64 (Conv2D)           (64, 32, 32, 64)          1792      
_________________________________________________________________
leaky_re_lu_72 (LeakyReLU)   (64, 32, 32, 64)          0         
_________________________________________________________________
conv2d_65 (Conv2D)           (64, 32, 32, 64)          36928     
_________________________________________________________________
leaky_re_lu_73 (LeakyReLU)   (64, 32, 32, 64)          0         
_________________________________________________________________
fractional_pooling2d_24 (Fra (64, 20, 20, 64)          0         
_________________________________________________________________
conv2d_66 (Conv2D)           (64, 20, 20, 128)         73856     
_________________________________________________________________
leaky_re_lu_74 (LeakyReLU)   (64, 20, 20, 128)         0         
_________________________________________________________________
conv2d_67 (Conv2D)           (64, 20, 20, 128)         147584    
_________________________________________________________________
leaky_re_lu_75 (LeakyReLU)   (64, 20, 20, 128)         0         
_________________________________________________________________
fractional_pooling2d_25 (Fra (64, 16, 16, 128)         0         
_________________________________________________________________
conv2d_68 (Conv2D)           (64, 16, 16, 256)         295168    
_________________________________________________________________
leaky_re_lu_76 (LeakyReLU)   (64, 16, 16, 256)         0         
_________________________________________________________________
conv2d_69 (Conv2D)           (64, 16, 16, 256)         590080    
_________________________________________________________________
leaky_re_lu_77 (LeakyReLU)   (64, 16, 16, 256)         0         
_________________________________________________________________
conv2d_70 (Conv2D)           (64, 16, 16, 256)         590080    
_________________________________________________________________
leaky_re_lu_78 (LeakyReLU)   (64, 16, 16, 256)         0         
_________________________________________________________________
fractional_pooling2d_26 (Fra (64, 10, 10, 256)         0         
_________________________________________________________________
conv2d_71 (Conv2D)           (64, 10, 10, 256)         590080    
_________________________________________________________________
leaky_re_lu_79 (LeakyReLU)   (64, 10, 10, 256)         0         
_________________________________________________________________
conv2d_72 (Conv2D)           (64, 10, 10, 256)         590080    
_________________________________________________________________
leaky_re_lu_80 (LeakyReLU)   (64, 10, 10, 256)         0         
_________________________________________________________________
conv2d_73 (Conv2D)           (64, 10, 10, 256)         590080    
_________________________________________________________________
leaky_re_lu_81 (LeakyReLU)   (64, 10, 10, 256)         0         
_________________________________________________________________
fractional_pooling2d_27 (Fra (64, 8, 8, 256)           0         
_________________________________________________________________
conv2d_74 (Conv2D)           (64, 8, 8, 512)           1180160   
_________________________________________________________________
leaky_re_lu_82 (LeakyReLU)   (64, 8, 8, 512)           0         
_________________________________________________________________
conv2d_75 (Conv2D)           (64, 8, 8, 512)           2359808   
_________________________________________________________________
leaky_re_lu_83 (LeakyReLU)   (64, 8, 8, 512)           0         
_________________________________________________________________
conv2d_76 (Conv2D)           (64, 8, 8, 512)           2359808   
_________________________________________________________________
leaky_re_lu_84 (LeakyReLU)   (64, 8, 8, 512)           0         
_________________________________________________________________
fractional_pooling2d_28 (Fra (64, 5, 5, 512)           0         
_________________________________________________________________
conv2d_77 (Conv2D)           (64, 5, 5, 512)           2359808   
_________________________________________________________________
leaky_re_lu_85 (LeakyReLU)   (64, 5, 5, 512)           0         
_________________________________________________________________
conv2d_78 (Conv2D)           (64, 5, 5, 512)           2359808   
_________________________________________________________________
leaky_re_lu_86 (LeakyReLU)   (64, 5, 5, 512)           0         
_________________________________________________________________
conv2d_79 (Conv2D)           (64, 5, 5, 512)           2359808   
_________________________________________________________________
leaky_re_lu_87 (LeakyReLU)   (64, 5, 5, 512)           0         
_________________________________________________________________
fractional_pooling2d_29 (Fra (64, 4, 4, 512)           0         
_________________________________________________________________
flatten_4 (Flatten)          (64, 8192)                0         
_________________________________________________________________
dense_10 (Dense)             (64, 4096)                33558528  
_________________________________________________________________
leaky_re_lu_88 (LeakyReLU)   (64, 4096)                0         
_________________________________________________________________
dense_11 (Dense)             (64, 4096)                16781312  
_________________________________________________________________
leaky_re_lu_89 (LeakyReLU)   (64, 4096)                0         
_________________________________________________________________
dense_12 (Dense)             (64, 10)                  40970     
=================================================================
Total params: 66,865,738
Trainable params: 66,865,738
Non-trainable params: 0
_________________________________________________________________

Train for 100 steps, validate for 3 steps
Epoch 1/50
 99/100 [============================>.] - ETA: 0s - loss: 2.3026 - accuracy: 0.1026
Epoch 00001: val_loss improved from inf to 2.30238, saving model to Model.hdf5
…
