Model Summary

Model: "model_3"
__________________________________________________________________________________________________
Layer (type)                    Output Shape         Param #     Connected to                     
==================================================================================================
input_4 (InputLayer)            [(None, 32, 32, 3)]  0                                            
__________________________________________________________________________________________________
conv2d_129 (Conv2D)             (None, 30, 30, 32)   896         input_4[0][0]                    
__________________________________________________________________________________________________
conv2d_130 (Conv2D)             (None, 28, 28, 64)   18496       conv2d_129[0][0]                 
__________________________________________________________________________________________________
max_pooling2d_6 (MaxPooling2D)  (None, 9, 9, 64)     0           conv2d_130[0][0]                 
__________________________________________________________________________________________________
conv2d_131 (Conv2D)             (None, 9, 9, 64)     36928       max_pooling2d_6[0][0]            
__________________________________________________________________________________________________
batch_normalization_120 (BatchN (None, 9, 9, 64)     256         conv2d_131[0][0]                 
__________________________________________________________________________________________________
conv2d_132 (Conv2D)             (None, 9, 9, 64)     36928       batch_normalization_120[0][0]    
__________________________________________________________________________________________________
batch_normalization_121 (BatchN (None, 9, 9, 64)     256         conv2d_132[0][0]                 
__________________________________________________________________________________________________
add_60 (Add)                    (None, 9, 9, 64)     0           batch_normalization_121[0][0]    
                                                                 max_pooling2d_6[0][0]            
__________________________________________________________________________________________________
activation_60 (Activation)      (None, 9, 9, 64)     0           add_60[0][0]                     
__________________________________________________________________________________________________
conv2d_133 (Conv2D)             (None, 9, 9, 64)     36928       activation_60[0][0]              
__________________________________________________________________________________________________
batch_normalization_122 (BatchN (None, 9, 9, 64)     256         conv2d_133[0][0]                 
__________________________________________________________________________________________________
conv2d_134 (Conv2D)             (None, 9, 9, 64)     36928       batch_normalization_122[0][0]    
__________________________________________________________________________________________________
batch_normalization_123 (BatchN (None, 9, 9, 64)     256         conv2d_134[0][0]                 
__________________________________________________________________________________________________
add_61 (Add)                    (None, 9, 9, 64)     0           batch_normalization_123[0][0]    
                                                                 activation_60[0][0]              
__________________________________________________________________________________________________
activation_61 (Activation)      (None, 9, 9, 64)     0           add_61[0][0]                     
__________________________________________________________________________________________________
conv2d_135 (Conv2D)             (None, 9, 9, 64)     36928       activation_61[0][0]              
__________________________________________________________________________________________________
batch_normalization_124 (BatchN (None, 9, 9, 64)     256         conv2d_135[0][0]                 
__________________________________________________________________________________________________
conv2d_136 (Conv2D)             (None, 9, 9, 64)     36928       batch_normalization_124[0][0]    
__________________________________________________________________________________________________
batch_normalization_125 (BatchN (None, 9, 9, 64)     256         conv2d_136[0][0]                 
__________________________________________________________________________________________________
add_62 (Add)                    (None, 9, 9, 64)     0           batch_normalization_125[0][0]    
                                                                 activation_61[0][0]              
__________________________________________________________________________________________________
activation_62 (Activation)      (None, 9, 9, 64)     0           add_62[0][0]                     
__________________________________________________________________________________________________
conv2d_137 (Conv2D)             (None, 9, 9, 64)     36928       activation_62[0][0]              
__________________________________________________________________________________________________
batch_normalization_126 (BatchN (None, 9, 9, 64)     256         conv2d_137[0][0]                 
__________________________________________________________________________________________________
conv2d_138 (Conv2D)             (None, 9, 9, 64)     36928       batch_normalization_126[0][0]    
__________________________________________________________________________________________________
batch_normalization_127 (BatchN (None, 9, 9, 64)     256         conv2d_138[0][0]                 
__________________________________________________________________________________________________
add_63 (Add)                    (None, 9, 9, 64)     0           batch_normalization_127[0][0]    
                                                                 activation_62[0][0]              
__________________________________________________________________________________________________
activation_63 (Activation)      (None, 9, 9, 64)     0           add_63[0][0]                     
__________________________________________________________________________________________________
conv2d_139 (Conv2D)             (None, 9, 9, 64)     36928       activation_63[0][0]              
__________________________________________________________________________________________________
batch_normalization_128 (BatchN (None, 9, 9, 64)     256         conv2d_139[0][0]                 
__________________________________________________________________________________________________
conv2d_140 (Conv2D)             (None, 9, 9, 64)     36928       batch_normalization_128[0][0]    
__________________________________________________________________________________________________
batch_normalization_129 (BatchN (None, 9, 9, 64)     256         conv2d_140[0][0]                 
__________________________________________________________________________________________________
add_64 (Add)                    (None, 9, 9, 64)     0           batch_normalization_129[0][0]    
                                                                 activation_63[0][0]              
__________________________________________________________________________________________________
activation_64 (Activation)      (None, 9, 9, 64)     0           add_64[0][0]                     
__________________________________________________________________________________________________
conv2d_141 (Conv2D)             (None, 9, 9, 64)     36928       activation_64[0][0]              
__________________________________________________________________________________________________
batch_normalization_130 (BatchN (None, 9, 9, 64)     256         conv2d_141[0][0]                 
__________________________________________________________________________________________________
conv2d_142 (Conv2D)             (None, 9, 9, 64)     36928       batch_normalization_130[0][0]    
__________________________________________________________________________________________________
batch_normalization_131 (BatchN (None, 9, 9, 64)     256         conv2d_142[0][0]                 
__________________________________________________________________________________________________
add_65 (Add)                    (None, 9, 9, 64)     0           batch_normalization_131[0][0]    
                                                                 activation_64[0][0]              
__________________________________________________________________________________________________
activation_65 (Activation)      (None, 9, 9, 64)     0           add_65[0][0]                     
__________________________________________________________________________________________________
conv2d_143 (Conv2D)             (None, 9, 9, 64)     36928       activation_65[0][0]              
__________________________________________________________________________________________________
batch_normalization_132 (BatchN (None, 9, 9, 64)     256         conv2d_143[0][0]                 
__________________________________________________________________________________________________
conv2d_144 (Conv2D)             (None, 9, 9, 64)     36928       batch_normalization_132[0][0]    
__________________________________________________________________________________________________
batch_normalization_133 (BatchN (None, 9, 9, 64)     256         conv2d_144[0][0]                 
__________________________________________________________________________________________________
add_66 (Add)                    (None, 9, 9, 64)     0           batch_normalization_133[0][0]    
                                                                 activation_65[0][0]              
__________________________________________________________________________________________________
activation_66 (Activation)      (None, 9, 9, 64)     0           add_66[0][0]                     
__________________________________________________________________________________________________
conv2d_145 (Conv2D)             (None, 9, 9, 64)     36928       activation_66[0][0]              
__________________________________________________________________________________________________
batch_normalization_134 (BatchN (None, 9, 9, 64)     256         conv2d_145[0][0]                 
__________________________________________________________________________________________________
conv2d_146 (Conv2D)             (None, 9, 9, 64)     36928       batch_normalization_134[0][0]    
__________________________________________________________________________________________________
batch_normalization_135 (BatchN (None, 9, 9, 64)     256         conv2d_146[0][0]                 
__________________________________________________________________________________________________
add_67 (Add)                    (None, 9, 9, 64)     0           batch_normalization_135[0][0]    
                                                                 activation_66[0][0]              
__________________________________________________________________________________________________
activation_67 (Activation)      (None, 9, 9, 64)     0           add_67[0][0]                     
__________________________________________________________________________________________________
conv2d_147 (Conv2D)             (None, 9, 9, 64)     36928       activation_67[0][0]              
__________________________________________________________________________________________________
batch_normalization_136 (BatchN (None, 9, 9, 64)     256         conv2d_147[0][0]                 
__________________________________________________________________________________________________
conv2d_148 (Conv2D)             (None, 9, 9, 64)     36928       batch_normalization_136[0][0]    
__________________________________________________________________________________________________
batch_normalization_137 (BatchN (None, 9, 9, 64)     256         conv2d_148[0][0]                 
__________________________________________________________________________________________________
add_68 (Add)                    (None, 9, 9, 64)     0           batch_normalization_137[0][0]    
                                                                 activation_67[0][0]              
__________________________________________________________________________________________________
activation_68 (Activation)      (None, 9, 9, 64)     0           add_68[0][0]                     
__________________________________________________________________________________________________
conv2d_149 (Conv2D)             (None, 9, 9, 64)     36928       activation_68[0][0]              
__________________________________________________________________________________________________
batch_normalization_138 (BatchN (None, 9, 9, 64)     256         conv2d_149[0][0]                 
__________________________________________________________________________________________________
conv2d_150 (Conv2D)             (None, 9, 9, 64)     36928       batch_normalization_138[0][0]    
__________________________________________________________________________________________________
batch_normalization_139 (BatchN (None, 9, 9, 64)     256         conv2d_150[0][0]                 
__________________________________________________________________________________________________
add_69 (Add)                    (None, 9, 9, 64)     0           batch_normalization_139[0][0]    
                                                                 activation_68[0][0]              
__________________________________________________________________________________________________
activation_69 (Activation)      (None, 9, 9, 64)     0           add_69[0][0]                     
__________________________________________________________________________________________________
conv2d_151 (Conv2D)             (None, 9, 9, 64)     36928       activation_69[0][0]              
__________________________________________________________________________________________________
batch_normalization_140 (BatchN (None, 9, 9, 64)     256         conv2d_151[0][0]                 
__________________________________________________________________________________________________
conv2d_152 (Conv2D)             (None, 9, 9, 64)     36928       batch_normalization_140[0][0]    
__________________________________________________________________________________________________
batch_normalization_141 (BatchN (None, 9, 9, 64)     256         conv2d_152[0][0]                 
__________________________________________________________________________________________________
add_70 (Add)                    (None, 9, 9, 64)     0           batch_normalization_141[0][0]    
                                                                 activation_69[0][0]              
__________________________________________________________________________________________________
activation_70 (Activation)      (None, 9, 9, 64)     0           add_70[0][0]                     
__________________________________________________________________________________________________
conv2d_153 (Conv2D)             (None, 9, 9, 64)     36928       activation_70[0][0]              
__________________________________________________________________________________________________
batch_normalization_142 (BatchN (None, 9, 9, 64)     256         conv2d_153[0][0]                 
__________________________________________________________________________________________________
conv2d_154 (Conv2D)             (None, 9, 9, 64)     36928       batch_normalization_142[0][0]    
__________________________________________________________________________________________________
batch_normalization_143 (BatchN (None, 9, 9, 64)     256         conv2d_154[0][0]                 
__________________________________________________________________________________________________
add_71 (Add)                    (None, 9, 9, 64)     0           batch_normalization_143[0][0]    
                                                                 activation_70[0][0]              
__________________________________________________________________________________________________
activation_71 (Activation)      (None, 9, 9, 64)     0           add_71[0][0]                     
__________________________________________________________________________________________________
conv2d_155 (Conv2D)             (None, 9, 9, 64)     36928       activation_71[0][0]              
__________________________________________________________________________________________________
batch_normalization_144 (BatchN (None, 9, 9, 64)     256         conv2d_155[0][0]                 
__________________________________________________________________________________________________
conv2d_156 (Conv2D)             (None, 9, 9, 64)     36928       batch_normalization_144[0][0]    
__________________________________________________________________________________________________
batch_normalization_145 (BatchN (None, 9, 9, 64)     256         conv2d_156[0][0]                 
__________________________________________________________________________________________________
add_72 (Add)                    (None, 9, 9, 64)     0           batch_normalization_145[0][0]    
                                                                 activation_71[0][0]              
__________________________________________________________________________________________________
activation_72 (Activation)      (None, 9, 9, 64)     0           add_72[0][0]                     
__________________________________________________________________________________________________
conv2d_157 (Conv2D)             (None, 9, 9, 64)     36928       activation_72[0][0]              
__________________________________________________________________________________________________
batch_normalization_146 (BatchN (None, 9, 9, 64)     256         conv2d_157[0][0]                 
__________________________________________________________________________________________________
conv2d_158 (Conv2D)             (None, 9, 9, 64)     36928       batch_normalization_146[0][0]    
__________________________________________________________________________________________________
batch_normalization_147 (BatchN (None, 9, 9, 64)     256         conv2d_158[0][0]                 
__________________________________________________________________________________________________
add_73 (Add)                    (None, 9, 9, 64)     0           batch_normalization_147[0][0]    
                                                                 activation_72[0][0]              
__________________________________________________________________________________________________
activation_73 (Activation)      (None, 9, 9, 64)     0           add_73[0][0]                     
__________________________________________________________________________________________________
conv2d_159 (Conv2D)             (None, 9, 9, 64)     36928       activation_73[0][0]              
__________________________________________________________________________________________________
batch_normalization_148 (BatchN (None, 9, 9, 64)     256         conv2d_159[0][0]                 
__________________________________________________________________________________________________
conv2d_160 (Conv2D)             (None, 9, 9, 64)     36928       batch_normalization_148[0][0]    
__________________________________________________________________________________________________
batch_normalization_149 (BatchN (None, 9, 9, 64)     256         conv2d_160[0][0]                 
__________________________________________________________________________________________________
add_74 (Add)                    (None, 9, 9, 64)     0           batch_normalization_149[0][0]    
                                                                 activation_73[0][0]              
__________________________________________________________________________________________________
activation_74 (Activation)      (None, 9, 9, 64)     0           add_74[0][0]                     
__________________________________________________________________________________________________
conv2d_161 (Conv2D)             (None, 9, 9, 64)     36928       activation_74[0][0]              
__________________________________________________________________________________________________
batch_normalization_150 (BatchN (None, 9, 9, 64)     256         conv2d_161[0][0]                 
__________________________________________________________________________________________________
conv2d_162 (Conv2D)             (None, 9, 9, 64)     36928       batch_normalization_150[0][0]    
__________________________________________________________________________________________________
batch_normalization_151 (BatchN (None, 9, 9, 64)     256         conv2d_162[0][0]                 
__________________________________________________________________________________________________
add_75 (Add)                    (None, 9, 9, 64)     0           batch_normalization_151[0][0]    
                                                                 activation_74[0][0]              
__________________________________________________________________________________________________
activation_75 (Activation)      (None, 9, 9, 64)     0           add_75[0][0]                     
__________________________________________________________________________________________________
conv2d_163 (Conv2D)             (None, 9, 9, 64)     36928       activation_75[0][0]              
__________________________________________________________________________________________________
batch_normalization_152 (BatchN (None, 9, 9, 64)     256         conv2d_163[0][0]                 
__________________________________________________________________________________________________
conv2d_164 (Conv2D)             (None, 9, 9, 64)     36928       batch_normalization_152[0][0]    
__________________________________________________________________________________________________
batch_normalization_153 (BatchN (None, 9, 9, 64)     256         conv2d_164[0][0]                 
__________________________________________________________________________________________________
add_76 (Add)                    (None, 9, 9, 64)     0           batch_normalization_153[0][0]    
                                                                 activation_75[0][0]              
__________________________________________________________________________________________________
activation_76 (Activation)      (None, 9, 9, 64)     0           add_76[0][0]                     
__________________________________________________________________________________________________
conv2d_165 (Conv2D)             (None, 9, 9, 64)     36928       activation_76[0][0]              
__________________________________________________________________________________________________
batch_normalization_154 (BatchN (None, 9, 9, 64)     256         conv2d_165[0][0]                 
__________________________________________________________________________________________________
conv2d_166 (Conv2D)             (None, 9, 9, 64)     36928       batch_normalization_154[0][0]    
__________________________________________________________________________________________________
batch_normalization_155 (BatchN (None, 9, 9, 64)     256         conv2d_166[0][0]                 
__________________________________________________________________________________________________
add_77 (Add)                    (None, 9, 9, 64)     0           batch_normalization_155[0][0]    
                                                                 activation_76[0][0]              
__________________________________________________________________________________________________
activation_77 (Activation)      (None, 9, 9, 64)     0           add_77[0][0]                     
__________________________________________________________________________________________________
conv2d_167 (Conv2D)             (None, 9, 9, 64)     36928       activation_77[0][0]              
__________________________________________________________________________________________________
batch_normalization_156 (BatchN (None, 9, 9, 64)     256         conv2d_167[0][0]                 
__________________________________________________________________________________________________
conv2d_168 (Conv2D)             (None, 9, 9, 64)     36928       batch_normalization_156[0][0]    
__________________________________________________________________________________________________
batch_normalization_157 (BatchN (None, 9, 9, 64)     256         conv2d_168[0][0]                 
__________________________________________________________________________________________________
add_78 (Add)                    (None, 9, 9, 64)     0           batch_normalization_157[0][0]    
                                                                 activation_77[0][0]              
__________________________________________________________________________________________________
activation_78 (Activation)      (None, 9, 9, 64)     0           add_78[0][0]                     
__________________________________________________________________________________________________
conv2d_169 (Conv2D)             (None, 9, 9, 64)     36928       activation_78[0][0]              
__________________________________________________________________________________________________
batch_normalization_158 (BatchN (None, 9, 9, 64)     256         conv2d_169[0][0]                 
__________________________________________________________________________________________________
conv2d_170 (Conv2D)             (None, 9, 9, 64)     36928       batch_normalization_158[0][0]    
__________________________________________________________________________________________________
batch_normalization_159 (BatchN (None, 9, 9, 64)     256         conv2d_170[0][0]                 
__________________________________________________________________________________________________
add_79 (Add)                    (None, 9, 9, 64)     0           batch_normalization_159[0][0]    
                                                                 activation_78[0][0]              
__________________________________________________________________________________________________
activation_79 (Activation)      (None, 9, 9, 64)     0           add_79[0][0]                     
__________________________________________________________________________________________________
conv2d_171 (Conv2D)             (None, 7, 7, 64)     36928       activation_79[0][0]              
__________________________________________________________________________________________________
max_pooling2d_7 (MaxPooling2D)  (None, 2, 2, 64)     0           conv2d_171[0][0]                 
__________________________________________________________________________________________________
flatten_3 (Flatten)             (None, 256)          0           max_pooling2d_7[0][0]            
__________________________________________________________________________________________________
dense_6 (Dense)                 (None, 256)          65792       flatten_3[0][0]                  
__________________________________________________________________________________________________
dense_7 (Dense)                 (None, 10)           2570        dense_6[0][0]                    
==================================================================================================
Total params: 1,612,042
Trainable params: 1,606,922
Non-trainable params: 5,120
__________________________________________________________________________________________________
None


Training Details


Train for 100 steps, validate for 3 steps
Epoch 1/50
 99/100 [============================>.] - ETA: 0s - loss: 2.5293 - acc: 0.2196
…
