Model Summary

Layer (type)                    Output Shape         Param #     Connected to                     
==================================================================================================
input_4 (InputLayer)            [(None, 32, 32, 3)]  0                                            
__________________________________________________________________________________________________
conv2d_69 (Conv2D)              (None, 30, 30, 32)   896         input_4[0][0]                    
__________________________________________________________________________________________________
conv2d_70 (Conv2D)              (None, 28, 28, 64)   18496       conv2d_69[0][0]                  
__________________________________________________________________________________________________
max_pooling2d_6 (MaxPooling2D)  (None, 9, 9, 64)     0           conv2d_70[0][0]                  
__________________________________________________________________________________________________
conv2d_71 (Conv2D)              (None, 9, 9, 64)     36928       max_pooling2d_6[0][0]            
__________________________________________________________________________________________________
batch_normalization_60 (BatchNo (None, 9, 9, 64)     256         conv2d_71[0][0]                  
__________________________________________________________________________________________________
conv2d_72 (Conv2D)              (None, 9, 9, 64)     36928       batch_normalization_60[0][0]     
__________________________________________________________________________________________________
batch_normalization_61 (BatchNo (None, 9, 9, 64)     256         conv2d_72[0][0]                  
__________________________________________________________________________________________________
add_30 (Add)                    (None, 9, 9, 64)     0           batch_normalization_61[0][0]     
                                                                 max_pooling2d_6[0][0]            
__________________________________________________________________________________________________
activation_30 (Activation)      (None, 9, 9, 64)     0           add_30[0][0]                     
__________________________________________________________________________________________________
conv2d_73 (Conv2D)              (None, 9, 9, 64)     36928       activation_30[0][0]              
__________________________________________________________________________________________________
batch_normalization_62 (BatchNo (None, 9, 9, 64)     256         conv2d_73[0][0]                  
__________________________________________________________________________________________________
conv2d_74 (Conv2D)              (None, 9, 9, 64)     36928       batch_normalization_62[0][0]     
__________________________________________________________________________________________________
batch_normalization_63 (BatchNo (None, 9, 9, 64)     256         conv2d_74[0][0]                  
__________________________________________________________________________________________________
add_31 (Add)                    (None, 9, 9, 64)     0           batch_normalization_63[0][0]     
                                                                 activation_30[0][0]              
__________________________________________________________________________________________________
activation_31 (Activation)      (None, 9, 9, 64)     0           add_31[0][0]                     
__________________________________________________________________________________________________
conv2d_75 (Conv2D)              (None, 9, 9, 64)     36928       activation_31[0][0]              
__________________________________________________________________________________________________
batch_normalization_64 (BatchNo (None, 9, 9, 64)     256         conv2d_75[0][0]                  
__________________________________________________________________________________________________
conv2d_76 (Conv2D)              (None, 9, 9, 64)     36928       batch_normalization_64[0][0]     
__________________________________________________________________________________________________
batch_normalization_65 (BatchNo (None, 9, 9, 64)     256         conv2d_76[0][0]                  
__________________________________________________________________________________________________
add_32 (Add)                    (None, 9, 9, 64)     0           batch_normalization_65[0][0]     
                                                                 activation_31[0][0]              
__________________________________________________________________________________________________
activation_32 (Activation)      (None, 9, 9, 64)     0           add_32[0][0]                     
__________________________________________________________________________________________________
conv2d_77 (Conv2D)              (None, 9, 9, 64)     36928       activation_32[0][0]              
__________________________________________________________________________________________________
batch_normalization_66 (BatchNo (None, 9, 9, 64)     256         conv2d_77[0][0]                  
__________________________________________________________________________________________________
conv2d_78 (Conv2D)              (None, 9, 9, 64)     36928       batch_normalization_66[0][0]     
__________________________________________________________________________________________________
batch_normalization_67 (BatchNo (None, 9, 9, 64)     256         conv2d_78[0][0]                  
__________________________________________________________________________________________________
add_33 (Add)                    (None, 9, 9, 64)     0           batch_normalization_67[0][0]     
                                                                 activation_32[0][0]              
__________________________________________________________________________________________________
activation_33 (Activation)      (None, 9, 9, 64)     0           add_33[0][0]                     
__________________________________________________________________________________________________
conv2d_79 (Conv2D)              (None, 9, 9, 64)     36928       activation_33[0][0]              
__________________________________________________________________________________________________
batch_normalization_68 (BatchNo (None, 9, 9, 64)     256         conv2d_79[0][0]                  
__________________________________________________________________________________________________
conv2d_80 (Conv2D)              (None, 9, 9, 64)     36928       batch_normalization_68[0][0]     
__________________________________________________________________________________________________
batch_normalization_69 (BatchNo (None, 9, 9, 64)     256         conv2d_80[0][0]                  
__________________________________________________________________________________________________
add_34 (Add)                    (None, 9, 9, 64)     0           batch_normalization_69[0][0]     
                                                                 activation_33[0][0]              
__________________________________________________________________________________________________
activation_34 (Activation)      (None, 9, 9, 64)     0           add_34[0][0]                     
__________________________________________________________________________________________________
conv2d_81 (Conv2D)              (None, 9, 9, 64)     36928       activation_34[0][0]              
__________________________________________________________________________________________________
batch_normalization_70 (BatchNo (None, 9, 9, 64)     256         conv2d_81[0][0]                  
__________________________________________________________________________________________________
conv2d_82 (Conv2D)              (None, 9, 9, 64)     36928       batch_normalization_70[0][0]     
__________________________________________________________________________________________________
batch_normalization_71 (BatchNo (None, 9, 9, 64)     256         conv2d_82[0][0]                  
__________________________________________________________________________________________________
add_35 (Add)                    (None, 9, 9, 64)     0           batch_normalization_71[0][0]     
                                                                 activation_34[0][0]              
__________________________________________________________________________________________________
activation_35 (Activation)      (None, 9, 9, 64)     0           add_35[0][0]                     
__________________________________________________________________________________________________
conv2d_83 (Conv2D)              (None, 9, 9, 64)     36928       activation_35[0][0]              
__________________________________________________________________________________________________
batch_normalization_72 (BatchNo (None, 9, 9, 64)     256         conv2d_83[0][0]                  
__________________________________________________________________________________________________
conv2d_84 (Conv2D)              (None, 9, 9, 64)     36928       batch_normalization_72[0][0]     
__________________________________________________________________________________________________
batch_normalization_73 (BatchNo (None, 9, 9, 64)     256         conv2d_84[0][0]                  
__________________________________________________________________________________________________
add_36 (Add)                    (None, 9, 9, 64)     0           batch_normalization_73[0][0]     
                                                                 activation_35[0][0]              
__________________________________________________________________________________________________
activation_36 (Activation)      (None, 9, 9, 64)     0           add_36[0][0]                     
__________________________________________________________________________________________________
conv2d_85 (Conv2D)              (None, 9, 9, 64)     36928       activation_36[0][0]              
__________________________________________________________________________________________________
batch_normalization_74 (BatchNo (None, 9, 9, 64)     256         conv2d_85[0][0]                  
__________________________________________________________________________________________________
conv2d_86 (Conv2D)              (None, 9, 9, 64)     36928       batch_normalization_74[0][0]     
__________________________________________________________________________________________________
batch_normalization_75 (BatchNo (None, 9, 9, 64)     256         conv2d_86[0][0]                  
__________________________________________________________________________________________________
add_37 (Add)                    (None, 9, 9, 64)     0           batch_normalization_75[0][0]     
                                                                 activation_36[0][0]              
__________________________________________________________________________________________________
activation_37 (Activation)      (None, 9, 9, 64)     0           add_37[0][0]                     
__________________________________________________________________________________________________
conv2d_87 (Conv2D)              (None, 9, 9, 64)     36928       activation_37[0][0]              
__________________________________________________________________________________________________
batch_normalization_76 (BatchNo (None, 9, 9, 64)     256         conv2d_87[0][0]                  
__________________________________________________________________________________________________
conv2d_88 (Conv2D)              (None, 9, 9, 64)     36928       batch_normalization_76[0][0]     
__________________________________________________________________________________________________
batch_normalization_77 (BatchNo (None, 9, 9, 64)     256         conv2d_88[0][0]                  
__________________________________________________________________________________________________
add_38 (Add)                    (None, 9, 9, 64)     0           batch_normalization_77[0][0]     
                                                                 activation_37[0][0]              
__________________________________________________________________________________________________
activation_38 (Activation)      (None, 9, 9, 64)     0           add_38[0][0]                     
__________________________________________________________________________________________________
conv2d_89 (Conv2D)              (None, 9, 9, 64)     36928       activation_38[0][0]              
__________________________________________________________________________________________________
batch_normalization_78 (BatchNo (None, 9, 9, 64)     256         conv2d_89[0][0]                  
__________________________________________________________________________________________________
conv2d_90 (Conv2D)              (None, 9, 9, 64)     36928       batch_normalization_78[0][0]     
__________________________________________________________________________________________________
batch_normalization_79 (BatchNo (None, 9, 9, 64)     256         conv2d_90[0][0]                  
__________________________________________________________________________________________________
add_39 (Add)                    (None, 9, 9, 64)     0           batch_normalization_79[0][0]     
                                                                 activation_38[0][0]              
__________________________________________________________________________________________________
activation_39 (Activation)      (None, 9, 9, 64)     0           add_39[0][0]                     
__________________________________________________________________________________________________
conv2d_91 (Conv2D)              (None, 7, 7, 64)     36928       activation_39[0][0]              
__________________________________________________________________________________________________
max_pooling2d_7 (MaxPooling2D)  (None, 2, 2, 64)     0           conv2d_91[0][0]                  
__________________________________________________________________________________________________
flatten_3 (Flatten)             (None, 256)          0           max_pooling2d_7[0][0]            
__________________________________________________________________________________________________
dense_6 (Dense)                 (None, 256)          65792       flatten_3[0][0]                  
__________________________________________________________________________________________________
dense_7 (Dense)                 (None, 10)           2570        dense_6[0][0]                    
==================================================================================================
Total params: 868,362
Trainable params: 865,802
Non-trainable params: 2,560


Train Summary

Epoch 1/30
193/195 [============================>.] - ETA: 0s - loss: 1.9452 - acc: 0.3059
Epoch 00001: val_loss improved from inf to 2.33582, saving model to Model.hdf5
…
